train.py: 1: train.py: import: not found
train.py: 2: train.py: Syntax error: word unexpected (expecting ")")
Initializing Training Process..
Batch size per GPU : 64
Generator(
  (conv_pre): Conv1d(80, 128, kernel_size=(7,), stride=(1,), padding=(3,))
  (ups): ModuleList(
    (0): ConvTranspose1d(128, 64, kernel_size=(16,), stride=(8,), padding=(4,))
    (1): ConvTranspose1d(64, 32, kernel_size=(16,), stride=(8,), padding=(4,))
    (2): ConvTranspose1d(32, 16, kernel_size=(4,), stride=(2,), padding=(1,))
    (3): ConvTranspose1d(16, 8, kernel_size=(4,), stride=(2,), padding=(1,))
  )
  (resblocks): ModuleList(
    (0): ResBlock1(
      (convs1): ModuleList(
        (0): Conv1d(64, 64, kernel_size=(3,), stride=(1,), padding=(1,))
        (1): Conv1d(64, 64, kernel_size=(3,), stride=(1,), padding=(3,), dilation=(3,))
        (2): Conv1d(64, 64, kernel_size=(3,), stride=(1,), padding=(5,), dilation=(5,))
      )
      (convs2): ModuleList(
        (0): Conv1d(64, 64, kernel_size=(3,), stride=(1,), padding=(1,))
        (1): Conv1d(64, 64, kernel_size=(3,), stride=(1,), padding=(1,))
        (2): Conv1d(64, 64, kernel_size=(3,), stride=(1,), padding=(1,))
      )
    )
    (1): ResBlock1(
      (convs1): ModuleList(
        (0): Conv1d(64, 64, kernel_size=(7,), stride=(1,), padding=(3,))
        (1): Conv1d(64, 64, kernel_size=(7,), stride=(1,), padding=(9,), dilation=(3,))
        (2): Conv1d(64, 64, kernel_size=(7,), stride=(1,), padding=(15,), dilation=(5,))
      )
      (convs2): ModuleList(
        (0): Conv1d(64, 64, kernel_size=(7,), stride=(1,), padding=(3,))
        (1): Conv1d(64, 64, kernel_size=(7,), stride=(1,), padding=(3,))
        (2): Conv1d(64, 64, kernel_size=(7,), stride=(1,), padding=(3,))
      )
    )
    (2): ResBlock1(
      (convs1): ModuleList(
        (0): Conv1d(64, 64, kernel_size=(11,), stride=(1,), padding=(5,))
        (1): Conv1d(64, 64, kernel_size=(11,), stride=(1,), padding=(15,), dilation=(3,))
        (2): Conv1d(64, 64, kernel_size=(11,), stride=(1,), padding=(25,), dilation=(5,))
      )
      (convs2): ModuleList(
        (0): Conv1d(64, 64, kernel_size=(11,), stride=(1,), padding=(5,))
        (1): Conv1d(64, 64, kernel_size=(11,), stride=(1,), padding=(5,))
        (2): Conv1d(64, 64, kernel_size=(11,), stride=(1,), padding=(5,))
      )
    )
    (3): ResBlock1(
      (convs1): ModuleList(
        (0): Conv1d(32, 32, kernel_size=(3,), stride=(1,), padding=(1,))
        (1): Conv1d(32, 32, kernel_size=(3,), stride=(1,), padding=(3,), dilation=(3,))
        (2): Conv1d(32, 32, kernel_size=(3,), stride=(1,), padding=(5,), dilation=(5,))
      )
      (convs2): ModuleList(
        (0): Conv1d(32, 32, kernel_size=(3,), stride=(1,), padding=(1,))
        (1): Conv1d(32, 32, kernel_size=(3,), stride=(1,), padding=(1,))
        (2): Conv1d(32, 32, kernel_size=(3,), stride=(1,), padding=(1,))
      )
    )
    (4): ResBlock1(
      (convs1): ModuleList(
        (0): Conv1d(32, 32, kernel_size=(7,), stride=(1,), padding=(3,))
        (1): Conv1d(32, 32, kernel_size=(7,), stride=(1,), padding=(9,), dilation=(3,))
        (2): Conv1d(32, 32, kernel_size=(7,), stride=(1,), padding=(15,), dilation=(5,))
      )
      (convs2): ModuleList(
        (0): Conv1d(32, 32, kernel_size=(7,), stride=(1,), padding=(3,))
        (1): Conv1d(32, 32, kernel_size=(7,), stride=(1,), padding=(3,))
        (2): Conv1d(32, 32, kernel_size=(7,), stride=(1,), padding=(3,))
      )
    )
    (5): ResBlock1(
      (convs1): ModuleList(
        (0): Conv1d(32, 32, kernel_size=(11,), stride=(1,), padding=(5,))
        (1): Conv1d(32, 32, kernel_size=(11,), stride=(1,), padding=(15,), dilation=(3,))
        (2): Conv1d(32, 32, kernel_size=(11,), stride=(1,), padding=(25,), dilation=(5,))
      )
      (convs2): ModuleList(
        (0): Conv1d(32, 32, kernel_size=(11,), stride=(1,), padding=(5,))
        (1): Conv1d(32, 32, kernel_size=(11,), stride=(1,), padding=(5,))
        (2): Conv1d(32, 32, kernel_size=(11,), stride=(1,), padding=(5,))
      )
    )
    (6): ResBlock1(
      (convs1): ModuleList(
        (0): Conv1d(16, 16, kernel_size=(3,), stride=(1,), padding=(1,))
        (1): Conv1d(16, 16, kernel_size=(3,), stride=(1,), padding=(3,), dilation=(3,))
        (2): Conv1d(16, 16, kernel_size=(3,), stride=(1,), padding=(5,), dilation=(5,))
      )
      (convs2): ModuleList(
        (0): Conv1d(16, 16, kernel_size=(3,), stride=(1,), padding=(1,))
        (1): Conv1d(16, 16, kernel_size=(3,), stride=(1,), padding=(1,))
        (2): Conv1d(16, 16, kernel_size=(3,), stride=(1,), padding=(1,))
      )
    )
    (7): ResBlock1(
      (convs1): ModuleList(
        (0): Conv1d(16, 16, kernel_size=(7,), stride=(1,), padding=(3,))
        (1): Conv1d(16, 16, kernel_size=(7,), stride=(1,), padding=(9,), dilation=(3,))
        (2): Conv1d(16, 16, kernel_size=(7,), stride=(1,), padding=(15,), dilation=(5,))
      )
      (convs2): ModuleList(
        (0): Conv1d(16, 16, kernel_size=(7,), stride=(1,), padding=(3,))
        (1): Conv1d(16, 16, kernel_size=(7,), stride=(1,), padding=(3,))
        (2): Conv1d(16, 16, kernel_size=(7,), stride=(1,), padding=(3,))
      )
    )
    (8): ResBlock1(
      (convs1): ModuleList(
        (0): Conv1d(16, 16, kernel_size=(11,), stride=(1,), padding=(5,))
        (1): Conv1d(16, 16, kernel_size=(11,), stride=(1,), padding=(15,), dilation=(3,))
        (2): Conv1d(16, 16, kernel_size=(11,), stride=(1,), padding=(25,), dilation=(5,))
      )
      (convs2): ModuleList(
        (0): Conv1d(16, 16, kernel_size=(11,), stride=(1,), padding=(5,))
        (1): Conv1d(16, 16, kernel_size=(11,), stride=(1,), padding=(5,))
        (2): Conv1d(16, 16, kernel_size=(11,), stride=(1,), padding=(5,))
      )
    )
    (9): ResBlock1(
      (convs1): ModuleList(
        (0): Conv1d(8, 8, kernel_size=(3,), stride=(1,), padding=(1,))
        (1): Conv1d(8, 8, kernel_size=(3,), stride=(1,), padding=(3,), dilation=(3,))
        (2): Conv1d(8, 8, kernel_size=(3,), stride=(1,), padding=(5,), dilation=(5,))
      )
      (convs2): ModuleList(
        (0): Conv1d(8, 8, kernel_size=(3,), stride=(1,), padding=(1,))
        (1): Conv1d(8, 8, kernel_size=(3,), stride=(1,), padding=(1,))
        (2): Conv1d(8, 8, kernel_size=(3,), stride=(1,), padding=(1,))
      )
    )
    (10): ResBlock1(
      (convs1): ModuleList(
        (0): Conv1d(8, 8, kernel_size=(7,), stride=(1,), padding=(3,))
        (1): Conv1d(8, 8, kernel_size=(7,), stride=(1,), padding=(9,), dilation=(3,))
        (2): Conv1d(8, 8, kernel_size=(7,), stride=(1,), padding=(15,), dilation=(5,))
      )
      (convs2): ModuleList(
        (0): Conv1d(8, 8, kernel_size=(7,), stride=(1,), padding=(3,))
        (1): Conv1d(8, 8, kernel_size=(7,), stride=(1,), padding=(3,))
        (2): Conv1d(8, 8, kernel_size=(7,), stride=(1,), padding=(3,))
      )
    )
    (11): ResBlock1(
      (convs1): ModuleList(
        (0): Conv1d(8, 8, kernel_size=(11,), stride=(1,), padding=(5,))
        (1): Conv1d(8, 8, kernel_size=(11,), stride=(1,), padding=(15,), dilation=(3,))
        (2): Conv1d(8, 8, kernel_size=(11,), stride=(1,), padding=(25,), dilation=(5,))
      )
      (convs2): ModuleList(
        (0): Conv1d(8, 8, kernel_size=(11,), stride=(1,), padding=(5,))
        (1): Conv1d(8, 8, kernel_size=(11,), stride=(1,), padding=(5,))
        (2): Conv1d(8, 8, kernel_size=(11,), stride=(1,), padding=(5,))
      )
    )
  )
  (conv_post): Conv1d(8, 1, kernel_size=(7,), stride=(1,), padding=(3,))
)
checkpoints directory :  ../HiFi-Gan-checkpoints/not-emb/LibriTTS/
Loading '../HiFi-Gan-checkpoints/not-emb/LibriTTS/g_generator_v2'
Complete.
 > Setting up Audio Processor...
 | > sample_rate:22050
 | > num_mels:80
 | > min_level_db:-100
 | > frame_shift_ms:None
 | > frame_length_ms:None
 | > ref_level_db:20
 | > fft_size:1025
 | > power:1.5
 | > preemphasis:0.98
…
